models/03_pytorch_computer_vision_model_2.pth (torch, 35762 bytes, 10 tensors)

conv_block_1.0.weight f4 [10, 1, 3, 3]
000000 48 60 a5 3e fb 27 94 3e ff 15 b3 be 00 f8 33 3e
       0.3230002 0.28936753 -0.3497772 0.17575073
000010 f6 03 21 3e ae 36 98 3d 8b ad b1 be 07 1c 88 3d
       0.15724167 0.07432304 -0.34702715 0.06645971
000020 10 09 8f 3e ac 20 c6 be 03 64 e4 3e d4 4f cd bd
       0.27936602 -0.38696802 0.44607553 -0.10024992
000030 50 fb 7b 3e 8f b3 d8 3e ad 9d 9f 3d 90 4a 15 be
       0.24607587 0.42324492 0.07793746 -0.14579225
000040 75 de 9b 3e 5d 9c 78 3d 2b e4 d0 be 5d 3d 21 be
       0.3044316 0.060695995 -0.40799078 -0.15746064
000050 58 ed 32 3d 0e 5a 35 bf a5 b9 38 bf 43 11 24 3e
       0.04368338 -0.7084054 -0.7215827 0.1602221
000060 22 42 54 bf a5 4b 2d bf 20 c3 05 be 78 c6 36 bf
       -0.8291341 -0.6769355 -0.13062716 -0.7139659
000070 94 47 74 bf 87 1f 24 bf e9 c8 78 3e 22 ab 3e bf
       -0.9542172 -0.64110607 0.24295391 -0.7447988
000080 9f d4 3e 3d 06 2f b1 3e 64 30 3f 3d 31 e4 b6 3e
       0.04658949 0.3460619 0.04667701 0.3572097
000090 b3 d3 2c be 90 f7 a7 3e fc 83 74 bd b9 ea 2c be
       -0.16877632 0.32806063 -0.059696183 -0.16886415
0000a0 4e e0 96 3e 34 16 f1 bd 72 31 52 3d 28 6b ad 3e
       0.29468006 -0.11771813 0.051316686 0.33870816
0000b0 b7 3d 91 3d fd 5c 15 be a4 38 3e 3e e5 12 72 3d
       0.07091849 -0.14586253 0.18576294 0.05910005
0000c0 87 a2 2b 3e 45 7f 51 be d0 ba a9 be be 78 04 be
       0.16761218 -0.20458706 -0.3315034 -0.12936684
0000d0 3e 28 84 be b9 32 7f 3e b4 bf 35 3e ff 95 57 3e
       -0.25811952 0.24921693 0.1774891 0.21053313
0000e0 09 6f 6d 3d 9e b6 1f 3e 13 74 55 3e 68 a9 73 be
       0.05796722 0.15597007 0.2084506 -0.23795092
0000f0 5d ab 19 ba 40 78 03 bf 23 fb f8 bc bf a9 46 be
       -0.0005862022 -0.5135536 -0.030393189 -0.1940069
000100 a7 f7 03 3c 8f a9 18 be be f5 8d 3e 00 02 80 be
       0.00805465 -0.14908431 0.2772655 -0.25001526
000110 84 86 59 be 72 52 54 be 8b 00 c7 3e 46 a8 43 3e
       -0.2124272 -0.20734575 0.38867602 0.1910716
000120 8a db 8e 3e 85 48 bc be 20 08 ac be a2 c4 af be
       0.2790187 -0.36774078 -0.3359995 -0.34329706
000130 91 3c ac be 58 bb 0a 3e f4 90 84 3e fd 50 d4 3e
       -0.33639959 0.13548028 0.2589184 0.4146804
000140 73 2d 13 be 81 5e 68 be 1d 01 35 3e 71 f2 09 be
       -0.14372806 -0.226923 0.17676206 -0.1347139
000150 ec e0 4e 3e e5 61 a4 bd c9 56 42 3e 8c 97 84 be
       0.20202988 -0.080264844 0.18978418 -0.2589687
000160 6a 80 2c be 4a e7 ce 3d
       -0.16845861 0.10102709

conv_block_1.0.bias f4 [10]
000000 2c 78 84 3d c7 c0 8e 3d ca 24 27 3e 85 b1 40 3e
       0.064682335 0.06970363 0.16322628 0.18817718
000010 43 ad 18 be c1 89 53 be 66 2b e4 3d 3f f8 bd bc
       -0.14909844 -0.20658018 0.1114109 -0.023189662
000020 32 7d 83 bd 92 84 a5 be
       -0.064203635 -0.32327706

conv_block_1.2.weight f4 [10, 10, 3, 3]
000000 37 2a 86 3d 83 b9 8d 3d aa 03 0d 3d c6 95 2d be
       0.065510206 0.06920149 0.034427322 -0.16951665
000010 03 80 48 be f4 de 2a be 10 c4 91 bd cd d7 47 be
       -0.19580083 -0.16686612 -0.07117474 -0.19515915
000020 9b 00 3d be da 78 88 bd 0a d2 4b 3c e8 9b 1e bc
       -0.18457262 -0.066636756 0.012440214 -0.009680726
000030 68 8c 4a be 8e 3a ac be 2b a3 56 be e8 59 c4 bd
       -0.19780123 -0.33638424 -0.20960681 -0.09587461
000040 f1 54 2c be e9 c6 39 be fb 1a 8e bc 65 e8 40 3d
       -0.16829278 -0.18142284 -0.01734685 0.04709663
000050 af 02 e5 3d 64 9c 8c 3d 3a bf 8c 3e 9c 3f 31 3e
       0.111821525 0.06865767 0.27489644 0.17309421
000060 5b 4b e2 bd bf 52 9d 3c ea 28 74 3d 16 5e 2d be
       -0.11049529 0.019204495 0.05960933 -0.16930422
000070 e4 af 0c bd 13 74 17 be 17 d1 76 3d f4 bc 92 bc
       -0.03434743 -0.14790373 0.060257997 -0.017912365
000080 a0 02 c5 bd 36 65 3a 3e f5 a3 cf 3d 08 aa c9 3d
       -0.09619641 0.18202671 0.10138694 0.09846884
000090 c0 f7 03 be f2 fd 07 be a3 35 11 3d 84 2f 1b bd
       -0.12887478 -0.13280466 0.035451543 -0.03788711
0000a0 9f 20 ea 3c 4e f9 b1 bd 76 ef b2 3d 40 85 96 bd
       0.028580008 -0.08690129 0.0873708 -0.07349634
0000b0 51 3d d8 bb 3d 45 b9 3c c7 d2 5f 3d f2 6c ad 3d
       -0.0065991064 0.022616023 0.054644372 0.08468045
0000c0 f0 5f c5 3d b7 3d ab bd 1f f9 de 3c ef f8 38 bd
       0.09637439 -0.083613805 0.0272184 -0.045159277
0000d0 c7 7d 47 bc 8a 38 a0 bd 66 de 58 3e 8b 6c 90 3b
       -0.012175984 -0.07823284 0.21178588 0.0044074706
0000e0 47 70 8c 3c d4 c5 00 3e 54 05 a1 3d e3 6c 5d bd
       0.017143382 0.12575465 0.078623444 -0.05405892
0000f0 68 6d bb 3d 83 9e 20 bc 91 90 a5 bd e2 d5 b3 bd
       0.09151727 -0.009803417 -0.080842145 -0.08781029
000100 69 21 37 3d 91 bf 65 bc 66 e6 46 bd 4b 9d b5 3d
       0.044709597 -0.014022724 -0.04855957 0.08867892
000110 ca 17 a4 3c 1b 04 75 bc e7 af 12 bd 7c eb 01 3b
       0.020030875 -0.014954592 -0.035812285 0.0019824198
000120 88 8a 7f 3d 95 86 a5 bc ef ec 5f bd 09 96 33 bd
       0.062387973 -0.020205775 -0.054669317 -0.043844257
000130 0a 33 98 bd ef 58 48 3d d9 16 d3 3d 94 c6 ac bd
       -0.0743161 0.04891294 0.10307092 -0.08436313
000140 7a c0 2a 3d 13 0f 5f 3d f4 60 9c 3c fd 8c 19 bd
       0.041687466 0.054457735 0.0190892 -0.037487973
000150 5e 57 61 3d c5 e4 62 3d 59 77 21 3d f8 bb 97 bc
       0.05501496 0.055393953 0.03942046 -0.018522248
000160 2c a4 e4 bc 07 a3 38 3c dc be 2a bc 74 74 b8 bb
       -0.027910315 0.0112693375 -0.010421481 -0.0056291167
000170 8f d3 ae 3d e5 65 b1 3d 20 a5 b8 3b 17 a7 d2 3b
       0.08536445 0.08662013 0.005634919 0.00642861
000180 e8 1e eb bc f3 db 98 bc 92 64 98 3c b1 c1 0a 3d
       -0.02870126 -0.018659567 0.018602643 0.033876125
000190 4b 30 81 bd 93 7d 7e bc 52 7d b7 3d a5 89 8c 3d
       -0.06308039 -0.015532869 0.0895945 0.06862191
0001a0 d0 da a5 3c 36 d5 be bd 20 3a 85 bd 14 93 d2 bd
       0.02024594 -0.093180105 -0.06505227 -0.10281959
0001b0 3d 62 11 bd 4b fa 0e 3d a6 55 77 3d 6a 4d 41 3d
       -0.035494078 0.034906667 0.060384415 0.04719297
0001c0 88 a8 c1 bd dd 11 8d bd 38 d1 a6 bc bf a0 c9 3d
       -0.09455973 -0.06888173 -0.020363435 0.09845113
0001d0 65 4d 04 3c 59 2c 1e bc a1 db 4d 3d 8b d9 e6 bc
       0.008075093 -0.009654128 0.050258283 -0.028179904
0001e0 7c e6 82 bd 2b 3a 94 3d ae 10 42 bd 54 b3 b6 bc
       -0.06391618 0.07237657 -0.04737919 -0.022302307
0001f0 74 be dd bd 70 9d 86 3d ff 41 9b 3d 4a 12 42 3d
       -0.10827342 0.065729976 0.07580947 0.047380723
000200 fe 67 8c bd 9f 1b fd bd ab 3e ba bd a9 4a 94 3d
       -0.068557724 -0.12358784 -0.09093984 0.07240803
000210 62 05 29 3d 46 cc bf 3d 80 7c 5d 3d 1f c7 da 3c
       0.0412649 0.09365134 0.05407381 0.026706276
000220 7d 4b 89 ba 0f 2a a4 bd 61 df b8 bd 20 d1 c9 bd
       -0.0010474768 -0.080158345 -0.09026981 -0.098543406
000230 0f 3b 31 3d 3c 5b 53 bd 51 f8 ad bc 18 49 78 bd
       0.043269213 -0.05160068 -0.02123657 -0.060616583
000240 55 32 c2 bc e8 5d a8 bd 9f 57 97 bd 1b 08 19 3d
       -0.02370564 -0.08221036 -0.07389759 0.037361246
000250 3a 48 b5 bc 40 c5 a0 3d b8 4d 45 bd fc 8f b9 bd
       -0.022129167 0.078501225 -0.04816982 -0.09060666
000260 b0 81 06 bd 52 37 48 bd b1 76 f7 bc dd 04 cb bd
       -0.032838523 -0.048880883 -0.030207964 -0.09913037
000270 86 39 74 3d 64 ec 95 bd 21 e3 54 3d 4a 2e 3f 3d
       0.05962517 -0.073204786 0.05197442 0.046675004
000280 ae 42 9b 3d 95 f8 a4 bd 4d ee a5 3d 55 ed 2a bd
       0.075810775 -0.08055226 0.08102093 -0.041730244
000290 e4 21 3b 3d ae 29 c9 3d 3c 6b 89 bc ed 40 a7 ba
       0.045686617 0.09822403 -0.016774766 -0.0012760438
0002a0 53 85 cb bc af c3 bf bd 5a fc 5a 3d 98 4e d6 bd
       -0.024843847 -0.093634956 0.053463317 -0.10464209
0002b0 f4 01 86 3d 00 87 a1 3d 19 2a cc 3d 62 b2 cb bc
       0.06543341 0.07887077 0.09968967 -0.024865333
0002c0 bb 65 b1 bd 93 20 c2 3c 91 83 6e 3d a2 dd d6 bd
       -0.08661982 0.023697173 0.05823094 -0.10491492
0002d0 fc 12 c6 bc 1f fe 81 bd 61 50 19 bc ef 78 55 bd
       -0.024178974 -0.06347298 -0.009357543 -0.052117284
0002e0 18 4d 34 bd f6 07 0e bd 7e ae d6 bd 9b 00 ac 3d
       -0.044018835 -0.03467556 -0.104825005 0.08398553
0002f0 dc b9 af 3d 7f ca 88 bc 2d ff 46 bc c4 52 30 bd
       0.08580372 -0.01669812 -0.0121458 -0.04304768
000300 6c f0 c4 bd 25 06 d4 bd b0 07 19 3d e4 39 87 bd
       -0.09616169 -0.103527345 0.037360847 -0.06602839
000310 67 a0 97 bd 30 5c 61 bc be ee 17 bd 22 86 15 bd
       -0.07403641 -0.013754889 -0.037092917 -0.036504872
000320 4b a5 b0 3a 27 e1 ba bc c0 10 19 bd b1 c9 54 bd
       0.0013476996 -0.02281244 -0.03736949 -0.05195016
000330 32 b9 ae bd 59 8f b5 3d cc df 2c bd 80 ea d6 3c
       -0.08531417 0.08865232 -0.042205617 0.026234865
000340 7e 79 1a bd c8 6a f6 3b e4 bd bf 3d 72 a6 37 3d
       -0.03771352 0.0075200535 0.09362391 0.04483647
000350 37 7b c1 bd 20 de f0 3c 33 b6 b4 3d 69 ec 95 3c
       -0.094473295 0.029402792 0.08823814 0.018301206
000360 e9 b5 90 3d 4b d5 d4 3d c6 46 84 bc 63 b7 b1 3c
       0.070659466 0.10392245 -0.016147029 0.02169389
000370 c8 1d 96 bd 83 d3 b6 bc 04 33 97 3d 14 5d 4e 3d
       -0.07329899 -0.022317654 0.07382777 0.050381735
000380 16 ff 8f bd 06 1c ad bd f6 85 93 bd a5 0b d5 bd
       -0.07031076 -0.08452611 -0.072032854 -0.10402612
000390 7b 94 a6 bd ce f5 d5 bc 88 db 91 3d c2 8a 90 3c
       -0.08133789 -0.026118185 0.071219504 0.01764429
0003a0 56 25 a4 bd 41 2f ad bd b3 47 4e 3d b1 76 a4 bd
       -0.08014934 -0.084562786 0.050361346 -0.08030451
0003b0 ef 67 74 bc 71 87 47 3d 11 27 51 bd 58 ae 53 bc
       -0.014917358 0.04871315 -0.051062647 -0.012919985
0003c0 81 47 17 bc 24 e2 c8 bc 98 dc 5b bd 96 78 c0 bd
       -0.009233356 -0.024521895 -0.05367717 -0.09398
0003d0 ab 81 ae bd 62 30 67 bd 52 45 d0 3d bf f3 50 bd
       -0.08520826 -0.056442626 0.10169472 -0.051013704
0003e0 bf dd 91 bd ac b7 b5 3c fe 11 e0 3c c9 90 6a 3d
       -0.07122373 0.022182308 0.02735233 0.057266984
0003f0 cc de a3 3d 4b 50 70 3d 48 0b d6 bd 81 db 02 3c
       0.080014795 0.058670323 -0.104513705 0.007986904

conv_block_1.2.bias f4 [10]
000000 02 07 ca 3e f2 c8 09 bd aa 7c 8b bd 59 b0 09 3f
       0.39458472 -0.033638902 -0.06810887 0.5378471
000010 6c 83 b9 bd 00 3a 5a bb 1b e9 5a 3e 15 12 40 bc
       -0.0905827 -0.003329873 0.21377985 -0.011723061
000020 f8 d8 60 3e 40 4c 43 3a
       0.21957767 0.0007450022

conv_block_2.0.weight f4 [10, 10, 3, 3]
000000 6a 69 46 bd 04 25 2d be 4a fc dc bd 05 37 5c bc
       -0.048440374 -0.16908652 -0.10790308 -0.013440852
000010 ac 60 b6 bc 52 24 af 3d 25 a5 98 bd 23 fa 23 3d
       -0.022262894 0.085518494 -0.07453374 0.04003347
000020 c9 52 a5 3d d8 20 74 3d 59 a8 c9 bd ea 60 29 bd
       0.08072431 0.059601635 -0.09846563 -0.04135219
000030 de aa bb bd 28 32 8b bd 89 53 6a 3d 9f a4 6a bc
       -0.0916345 -0.06796676 0.05720857 -0.014321475
000040 f7 7b 42 3d bd 81 7f bd 83 21 82 3c 04 80 82 bd
       0.047481503 -0.062379587 0.01588512 -0.06372073
000050 6c 7c 57 3d 84 bf 3c bd ac 60 d6 bc b4 f5 ba bd
       0.052608892 -0.04608108 -0.026169144 -0.091288954
000060 2e 51 9f 39 a1 19 cd 3d bd 9b 51 3d fa bb 3c be
       0.00030387327 0.10014654 0.051173914 -0.18431082
000070 29 68 70 bb ae c6 af bd 81 ec 12 be 22 41 ae 3d
       -0.0036683178 -0.08582817 -0.14348032 0.08508517
000080 08 43 7c bd bc 2a 00 3e fd e9 3c 3a d4 99 4b bd
       -0.061587363 0.12516302 0.0007206498 -0.04970725
000090 4f af c8 3c b6 8c 24 3d 47 2f a8 3c f9 30 0b bd
       0.024497656 0.040173255 0.020530356 -0.03398225
0000a0 c2 2b e0 3d 18 0b 92 bc 5e 33 5a bd d6 9c 07 bd
       0.10945846 -0.017827556 -0.053271644 -0.033108555
0000b0 d3 41 e0 3d 9a e5 5b 3b 89 fb 91 bd 6e 84 c7 bd
       0.10950055 0.0033553601 -0.07128055 -0.09742056
0000c0 66 12 77 bc ed 9e ef bd 31 43 0f be ed be ed 3c
       -0.01508007 -0.117002346 -0.13990475 0.029021705
0000d0 4d 47 81 3d fe b5 5b 3d 2b 4c 24 be 63 a9 49 3d
       0.06312428 0.05364036 -0.16044681 0.049233805
0000e0 c5 06 1d be 9b 20 2e 3e c7 b2 06 3e 89 b2 eb 3d
       -0.15334614 0.17004625 0.13154136 0.11508662
0000f0 9e a7 de 3e e2 2d 24 3e e9 c4 7d 3c ff dc 71 3d
       0.43487257 0.16033128 0.015488842 0.05904865
000100 1a 90 21 bd f4 2a 4a 3a 33 50 70 3d 7f ab 17 3d
       -0.039444067 0.0007712089 0.058670234 0.037028786
000110 1a c8 ac bd b8 52 0e 3e 29 b7 81 bd b0 1b 15 bd
       -0.08436604 0.13898742 -0.06333763 -0.036403358
000120 a4 9a 31 be 98 54 d4 bd 19 2a 54 bd ba c5 a4 3d
       -0.17344147 -0.103676975 -0.05179796 0.08045526
000130 72 ef d2 3d 12 4b f2 bb 64 cd a2 3c 07 56 8f bd
       0.10299577 -0.007394203 0.019873329 -0.0699883
000140 8e d6 3c 3d 1b 51 17 3e 98 0e c7 bd 89 56 0f bd
       0.046103053 0.14777033 -0.097195804 -0.034994636
000150 6d 55 44 3e 77 2b 15 3e 8d 02 98 bd 1d 99 23 3e
       0.19173212 0.14567362 -0.074223615 0.15976377
000160 99 6d 24 3e dc 06 ae 3c 60 fd bb 3d 56 5e 68 be
       0.16057433 0.021243505 0.09179187 -0.22692236
000170 86 b2 b5 bd a9 21 4a 3e d3 b2 a0 be 07 7d 20 be
       -0.08871941 0.19739403 -0.31386432 -0.15672694
000180 c3 11 89 3d df 04 b8 3d b4 c9 4d bd a5 41 48 3d
       0.06692841 0.08985304 -0.050241187 0.04889073
000190 ba af 19 bd 32 5d ca bd c3 44 8d bd 1a 19 aa 3d
       -0.0375211 -0.09881057 -0.06897881 0.08305569
0001a0 70 f8 a5 bc a7 1d 1a 3d ed 80 0c bd 36 18 aa 3d
       -0.020260066 0.037625935 -0.03430264 0.08305399
0001b0 a7 97 81 3d 81 ca 18 3d 51 f3 56 bd 43 8d b0 bd
       0.063277535 0.037302498 -0.05247814 -0.086206935
0001c0 7b 56 86 3b 0f a6 7b bd ad d3 b1 3d 88 8f cf bd
       0.0040996647 -0.061437663 0.08682952 -0.10134798
0001d0 dd f4 40 3d dc 71 ee be 42 b4 6c 3e 16 67 0e 3e
       0.04710852 -0.46571243 0.23115638 0.13906512
0001e0 0d ab d6 bc 26 0d 66 3f ce 60 f0 3e 1d 29 2f bf
       -0.02620461 0.8986381 0.46948856 -0.6842211
0001f0 20 b8 d7 bd 56 7c f7 bd 4f f9 fc 3c e2 c7 74 3d
       -0.10533166 -0.12084262 0.030880598 0.059760936
000200 93 e3 af bd a7 6c 88 bd 22 b4 8c bd 7d ca 2c bd
       -0.08588328 -0.06661349 -0.06870295 -0.042185295
000210 18 5a ca 3c 20 6d 0c be 47 cb 8a bd 9a a0 33 3e
       0.024701163 -0.13713503 -0.06777053 0.17541733
000220 3e 00 00 bf 57 74 04 be a1 02 63 3e 1a 26 b7 3d
       -0.5000037 -0.12935005 0.22168972 0.08942814
000230 23 02 e6 bb 37 36 aa 3b 53 3b 5c 3e 8e f1 9d 3e
       -0.0070192977 0.005194451 0.21507005 0.30848354
000240 0a 05 3b bf 9a ed 84 bd 09 9a 69 3e c2 6e 0b bf
       -0.73054564 -0.064906314 0.22812666 -0.5446588
000250 59 d4 ba 3e d0 0d 0e 3f f5 4a 7f be 19 43 ec 3c
       0.36490133 0.55489826 -0.24930938 0.028840588
000260 71 d0 6a bb 6d 37 ad bd c3 30 91 be 6b c9 b8 bd
       -0.0035829807 -0.08457837 -0.28357515 -0.090227924
000270 e3 83 b7 be 1e 7f 3e be 8f ca df bd fc 6c 46 be
       -0.3584281 -0.18603179 -0.10927307 -0.19377512
000280 2c c5 15 be 3d 7f d0 bd e3 15 00 bf 88 82 0a 3d
       -0.14625996 -0.10180519 -0.50033396 0.03381589
000290 17 0c c3 3e 36 b0 09 be 33 cb c8 3e 82 d7 f0 3e
       0.3809516 -0.13446125 0.3921753 0.4703942
0002a0 2e 4d 47 be 12 b0 b1 bd ce 99 3c be 69 eb 70 3e
       -0.19463035 -0.08676161 -0.18418047 0.23527302
0002b0 b5 f1 cd 3d 10 1b 07 bd dd b4 92 3e 9a ff c3 3c
       0.100558676 -0.032984793 0.28653613 0.023925591
0002c0 ae 25 22 be eb 31 9a be ad 69 ae 3c aa ba 88 3e
       -0.15834686 -0.3011621 0.021290625 0.26704913
0002d0 a5 a9 53 bd 06 70 93 3d 4a 2f 85 3d 94 4d cb bd
       -0.051675458 0.07199101 0.0650316 -0.09926906
0002e0 6e 55 cf bd 49 4c d8 bd 5f 73 97 bd 1f 45 3b bd
       -0.10123716 -0.10561425 -0.07395052 -0.045720216
0002f0 c8 50 ca bc 90 d0 d2 bc b6 fb 5b bd de a0 0a bd
       -0.024696723 -0.025734216 -0.053706847 -0.03384482
000300 e5 5a 1e bd ba b0 d3 3d a4 a3 1c bd b1 88 9a bd
       -0.038660903 0.10336442 -0.038241997 -0.07545603
000310 a4 25 33 3d 08 d0 a8 bb 55 46 a5 3d cb e1 86 3d
       0.04373707 -0.0051517524 0.080700554 0.06586035
000320 30 56 c6 3d d0 1a 9e bd 58 ca 8a 3d 4b 30 b5 3d
       0.09684408 -0.07719958 0.06776875 0.08847102
000330 16 34 55 bd 6e 6c c6 3d d8 d3 a1 3d 6f 31 d4 bc
       -0.052051626 0.0968865 0.07901734 -0.025902478
000340 e4 81 e8 3c bc e6 7f bd 80 0d da bd 30 ee e6 3c
       0.02838225 -0.062475905 -0.10647106 0.028189749
000350 ed ee e1 3c ca aa c4 bd 0d 9e b7 3c c8 84 f2 bd
       0.027579749 -0.09602888 0.022414232 -0.11841732
000360 72 f1 ab 3d a8 34 cc 3d 71 4c 78 3c af ae 87 bd
       0.083956614 0.09970981 0.015154944 -0.06625115
000370 b6 c3 72 3d 84 44 4c 3c e5 fa 70 3c 82 14 db 3c
       0.059268676 0.012467507 0.014708255 0.026743177
000380 56 c1 7e 3d 17 b8 7e bd bd 34 2a bd 7f 27 9b 3c
       0.0621961 -0.06218728 -0.0415542 0.018939732
000390 ed 8b 1d bb 76 f9 9e 3d e4 39 4e bd de 5a 43 bc
       -0.00240397 0.07762425 -0.050348178 -0.01192352
0003a0 89 a6 c8 3c 4c 22 81 bc 90 f1 61 3d c0 26 16 3a
       0.024493473 -0.015763424 0.055162013 0.000572782
0003b0 c6 49 de bd bd 82 a2 bc 2c e8 5a bd f1 0c b0 3c
       -0.10853915 -0.019837731 -0.053444073 0.021490546
0003c0 db 1e f5 bc 2c 47 f9 bd 08 72 1a bc 9a 08 94 bc
       -0.02992194 -0.12171778 -0.009426601 -0.018070508
0003d0 71 35 02 bd 9f 62 b2 3d 8a e8 af bc 30 5e 99 3d
       -0.031789247 0.08710217 -0.021473188 0.07488668
0003e0 d7 38 10 3d 2c 26 ca bd cf 14 88 3c a6 2e b2 3d
       0.035210457 -0.09870562 0.016611485 0.08700304
0003f0 8f 66 c3 bd de f0 c0 bd 08 a9 a6 3d d0 a2 94 3d
       -0.09541046 -0.09420942 0.08137709 0.072576165

conv_block_2.0.bias f4 [10]
000000 7b 03 dd bd 47 9c 0f 3e 1a bf 65 bd ca c2 b1 bd
       -0.107916795 0.14024459 -0.05609045 -0.08679731
000010 89 2f c7 bd bd 8d 12 3c 26 10 ce 3e 52 b3 ff 3e
       -0.097258635 0.008944926 0.40246695 0.49941498
000020 9f af 58 3f 0d da 0c bd
       0.84642977 -0.034387637

conv_block_2.2.weight f4 [10, 10, 3, 3]
000000 7f 06 e5 bd 5d fb 3f be 25 a7 b6 bd 89 62 ba bc
       -0.1118288 -0.18748231 -0.08918599 -0.022752063
000010 3c b6 4d 3d 68 84 c8 3d 48 41 56 3d d1 db 53 be
       0.05022262 0.097908795 0.05230835 -0.20689322
000020 17 45 6e 3c b6 00 81 be 08 e4 67 be 12 12 e0 3d
       0.0145428395 -0.25195855 -0.22645581 0.10940947
000030 7d 02 23 bc eb 6a b0 bd 9b 99 16 bf 6f 5f aa 3e
       -0.009949324 -0.08614143 -0.58828133 0.33275935
000040 fb b2 6f 3e 85 ae 10 bf d3 c9 11 3d 79 62 24 3b
       0.2340812 -0.56516296 0.035592865 0.0025083108
000050 c2 20 b1 3d e3 3e b2 bd dd 2b 80 3d a4 91 95 3c
       0.08648826 -0.08703401 0.06258366 0.018257923
000060 09 6e 85 3b 82 9e 91 3d be e0 c0 bd 33 e0 94 bd
       0.004071955 0.07110311 -0.09417866 -0.07269325
000070 1e e9 b4 3d b3 48 50 bd c0 5a ff bc ca 3b 87 bb
       0.08833526 -0.05085058 -0.031171203 -0.0041270005
000080 73 35 62 3b 08 85 8b ba e8 16 2e 3c 43 ae 93 3d
       0.0034516721 -0.0010644505 0.010625578 0.07210972
000090 26 a8 e0 bd bc 23 51 bd a0 56 87 3d 3f 53 28 bd
       -0.10969572 -0.05105947 0.06608319 -0.041095015
0000a0 53 cf b2 bd b6 86 5f 3d 72 79 20 bd 12 d5 b1 bd
       -0.0873095 0.05457183 -0.03917832 -0.08683218
0000b0 10 cb 09 be db 8c 64 bd e9 67 b1 bd 03 14 90 3d
       -0.13456368 -0.055798393 -0.086623974 0.07035067
0000c0 bf 0e 08 bd 5b 78 9a 3c 99 a1 4a 3d cf 2d 33 bd
       -0.033217188 0.018856218 0.049470518 -0.04374486
0000d0 57 a8 4a bd f6 d2 4d bd 45 4b b9 be 2c 5c 92 bd
       -0.049476948 -0.050250016 -0.3619024 -0.07146487
0000e0 57 0c 2e bf 21 c0 8b be 4c 9e 47 3e 31 f3 df 3e
       -0.6798758 -0.2729502 0.19493979 0.43740228
0000f0 62 dc a5 be c9 30 00 3e 29 1b 07 3f a7 d9 bc 3e
       -0.323947 0.1251861 0.5277582 0.36884806
000100 f9 a4 c3 3d 72 97 c1 be 49 30 07 bd 05 24 06 be
       0.095529504 -0.37810856 -0.033005033 -0.13099678
000110 db cd 9d 3d 18 9b 96 bc e8 df 0c be fc 8d b9 3d
       0.077052794 -0.018384501 -0.13757288 0.090602845
000120 92 d7 e8 3e e3 7e 67 bd a9 83 a1 3e 2b fb 3d bd
       0.45476967 -0.056517493 0.3154576 -0.04638211
000130 a7 67 09 bf bc 53 d6 3d cf 93 af be e5 0e dc be
       -0.53673786 0.1046519 -0.34292457 -0.42980114
000140 d7 c8 56 be 4f 8f 20 bd 17 2e c2 3c 17 16 74 bd
       -0.20975052 -0.03919917 0.023703618 -0.05959138
000150 cc 13 ef 3d 85 67 9f bd aa 1a 15 bd de 94 d5 3d
       0.11673698 -0.07783417 -0.036402382 0.10428785
000160 e6 9d 32 bd 0c 13 8b bd 17 18 94 3d e0 4b 30 3c
       -0.043607615 -0.06790742 0.07231157 0.0107602775
000170 1f 95 ec bc 3d 5d 11 be 4d 24 23 bd 72 6f 18 be
       -0.0288797 -0.14195724 -0.03982954 -0.14886263
000180 94 a3 c4 3b d1 73 4d 3d 15 be 52 bd 34 61 43 be
       0.0060009453 0.05015928 -0.051450808 -0.19080049
000190 73 fc b2 bd 24 f8 13 bc 31 13 0c 3f b4 6a 02 be
       -0.08739557 -0.009031329 0.54716784 -0.12736017
0001a0 6c 18 74 be db 70 ac bc 60 62 81 be df 53 fd be
       -0.23837441 -0.021049907 -0.25270367 -0.4947805
0001b0 46 21 c3 3c de ff b8 3c d9 47 a1 3d f0 02 8e 3d
       0.023819577 0.022582944 0.07875032 0.06934154
0001c0 e0 80 83 bd ce 93 49 bd f0 4d 03 bd 2f 9b 9c bd
       -0.06421065 -0.049213223 -0.03205675 -0.076467864
0001d0 53 72 04 bd a5 e8 8c bd 12 ba a4 3b 38 8f b4 3d
       -0.03233559 -0.06880311 0.005027064 0.08816379
0001e0 f9 5d 71 bc a3 23 8e bd 84 20 e5 bd 21 c5 93 bd
       -0.0147318775 -0.06940391 -0.111878425 -0.07215334
0001f0 fa 4e 1c 3d 57 6d 19 bd d7 2b f6 3b 7d 9d 8b 3c
       0.038161255 -0.03745779 0.0075125503 0.01704287
000200 c9 0a fe 3c ba d8 57 3c 1e ba a6 bd 39 94 61 3d
       0.031011002 0.01317423 -0.08140968 0.055072997
000210 ba 1a b4 3c 86 3f de bd c1 b8 bf bc 8d eb 6a 3b
       0.0219854 -0.1085196 -0.023403527 0.0035845966
000220 7f 16 34 3c df 50 9d 3d d6 af f1 bd 25 21 35 be
       0.010991692 0.076814406 -0.11801116 -0.17688425
000230 1c ac 1d bd df f4 ba bd 08 bc a4 bc 17 b4 d1 bc
       -0.038494214 -0.09128737 -0.020109192 -0.025598569
000240 ce dc 03 bd 99 c6 0c 3e d9 28 d2 3e c8 4d d0 bd
       -0.032192998 0.13747634 0.4104679 -0.101710856
000250 9f ab c3 3d 92 d9 45 be 3d 68 50 3b 73 de 46 3e
       0.095542185 -0.19321278 0.0031800412 0.19420795
000260 3c 82 9c be ee 07 6f 3e 1e b0 30 bd de 64 26 3b
       -0.3056811 0.23342869 -0.04313671 0.0025389711
000270 d4 16 4a bd c1 34 8b be 2f 6a 89 be 9e 05 b4 3d
       -0.049338177 -0.27188686 -0.26838824 0.08790134
000280 ef c5 a2 be 3e 33 77 3d bc ef 1c bd 13 8f 8c be
       -0.31791636 0.060351603 -0.038314566 -0.27452907
000290 a8 3c 42 bd 1f 2b 45 bd 7f 2a 8e be 1c d0 a2 bc
       -0.047421128 -0.048136827 -0.27766797 -0.019874625
0002a0 5c 3f 06 3d 53 40 7a bd 67 6e ab 3e 7e 90 ce bc
       0.032775268 -0.0610965 0.33482668 -0.025215384
0002b0 f6 86 f9 3c ef 5f 96 3d 9e e4 74 bd 72 3d 4b bd
       0.030459862 0.07342517 -0.05978834 -0.049619146
0002c0 d5 38 55 3d 79 a0 ce 3b f1 20 4f bb 9f 0c b3 bd
       0.052056152 0.006305751 -0.0031605328 -0.08742642
0002d0 b2 84 48 3e 82 9f 00 3e da d7 98 bd e3 a5 51 bd
       0.19581869 0.12560847 -0.074630454 -0.051183593
0002e0 fe 5d 99 3d f5 f1 aa bd 93 fc d6 bc c3 b3 11 3e
       0.07488631 -0.08346931 -0.026243484 0.1422873
0002f0 10 12 9e bd 2f fe 1b bf 8a ff dc 3d 1e 9c ea be
       -0.07718289 -0.6093473 0.10790928 -0.45822233
000300 46 7b 08 bf ef a3 1a 3f 51 80 19 bd b7 8d 4c be
       -0.533131 0.6040639 -0.037475888 -0.19975935
000310 99 0b da bc bf 5b c7 3e e8 f1 05 bd 9a e3 3b bd
       -0.026616858 0.38937184 -0.032701403 -0.045871355
000320 f2 af bf bc 23 57 a0 bc 40 ed 21 3d 99 42 6c 3d
       -0.023399327 -0.0195728 0.0395329 0.0576807
000330 00 77 7d bc 90 fe 2d bd 27 c6 40 3d f5 eb 17 be
       -0.015470266 -0.042479098 0.047063973 -0.14836104
000340 6b 74 d4 3d d7 7a 44 3d c2 cc 51 ba d9 71 16 3d
       0.103737675 0.04796871 -0.00080032286 0.036729667
000350 e3 a4 56 bd 21 03 8e 3d e8 d9 c1 3b bc 62 ad 3d
       -0.052403342 0.069341905 0.005915869 0.08466098
000360 e5 0c cb 3d f1 81 b7 bd f2 0f 1b bc 36 7b dd 3b
       0.09914569 -0.08960331 -0.009464251 0.0067590727
000370 0c 99 a9 3d 17 33 ed bd 19 3d 46 3e 1d 41 86 3d
       0.082811445 -0.1158201 0.19359244 0.06555388
000380 e2 30 05 3d 90 b0 4a 3e ed b4 d0 bc 33 dc 31 be
       0.03251732 0.19793916 -0.025476897 -0.17369156
000390 32 15 80 3e fe b1 9b 3c 24 42 5d bd a1 9f 4d 3d
       0.2501617 0.019005772 -0.054018155 0.050201062
0003a0 6a 65 1f bc 88 a0 f1 bd 47 62 da be 5b 2d 96 bd
       -0.009728769 -0.11798197 -0.42653105 -0.073328696
0003b0 91 5e db 3e 64 44 39 be 22 90 c1 bc c2 bc 70 be
       0.42845586 -0.18092495 -0.023628298 -0.23509505
0003c0 52 dd 1e 3c 78 f4 79 3d e2 73 eb bc 21 52 c0 bd
       0.009696322 0.06102416 -0.02874178 -0.09390665
0003d0 2a 4f 27 3f bd c9 f8 bd fe e5 d6 be 30 c9 39 3e
       0.6535517 -0.121478535 -0.41972345 0.18143153
0003e0 ba 23 2a bd 90 47 c8 3c 9e 79 ae be 4d e1 66 3d
       -0.041537978 0.024448186 -0.34077162 0.056367207
0003f0 1c 4e 21 be 51 6f 36 be c5 41 89 3d b2 15 7d bd
       -0.15752453 -0.17815901 0.06701998 -0.06178827

conv_block_2.2.bias f4 [10]
000000 79 4c 26 3e 8a 4b a5 3d c6 9d 0f 3e dc 6f 82 3d
       0.1624011 0.080710486 0.1402503 0.06368992
000010 13 90 8b be 6e 1d 55 3e 3f fe 2b 3e ec 39 ba bd
       -0.27258357 0.20812008 0.16796206 -0.09093079
000020 9d cc 8b bd f0 8c 00 be
       -0.06826136 -0.12553763

classifier.1.weight f4 [10, 490]
000000 73 e2 6c 3b 37 41 40 be 00 00 32 3e 1e 38 df bd
       0.0036145716 -0.18774877 0.17382812 -0.108993754
000010 a5 ea 01 3e 51 4a 80 3d 7b 91 f1 3c 4d ee 98 3c
       0.12687166 0.06264175 0.029488316 0.018668318
000020 bd 9e 52 3e 34 de a7 3d e4 5f 2f be ee d8 ef 3d
       0.20568366 0.08196679 -0.17126423 0.11711298
000030 3b d4 8c 3c 3d e6 2d 3d a5 3e 4d 3d aa 96 c5 3d
       0.017191043 0.0424559 0.05010857 0.096478775
000040 3b 79 0f 3e 87 d1 cf bd bb b1 0d bc bf 5b d6 3d
       0.1401109 -0.10147386 -0.008648331 0.10466718
000050 9c d7 c9 bd 6f 01 52 bc e5 cf 85 3d 69 da d1 3d
       -0.09855577 -0.012817725 0.06533793 0.102467366
000060 1a 03 0f 3d 4d 15 10 3e 9a 1e cb 3c 25 79 b4 bd
       0.034915067 0.14070626 0.024794865 -0.08812169
000070 16 98 86 bd 75 df fe bc ca 16 95 bd 7d 9b 51 bd
       -0.06571977 -0.031112412 -0.07279737 -0.051173676
000080 8e 0f 44 3e bf d5 01 be 3c d2 b4 bc 8b ed 1f 3d
       0.19146559 -0.12679194 -0.022072904 0.039044898
000090 9d a2 0e be fc 94 2b bd ac 30 63 bd 83 12 b7 bd
       -0.1392922 -0.04189013 -0.05546634 -0.08939078
0000a0 d8 9f 30 3e 24 bb 51 bd ed 38 a2 3d 78 25 05 be
       0.17248476 -0.05120386 0.07921014 -0.13002574
0000b0 4f 91 55 be ea 61 11 3b 6c f3 82 bd b9 97 8e 3e
       -0.20856212 0.0022183605 -0.06394085 0.2785013
0000c0 0d ea a1 bd 3e a4 81 3b b2 7d aa bd b7 ea 92 bd
       -0.0790597 0.003956347 -0.08324756 -0.071736746
0000d0 57 02 3d bc a0 e9 49 bd 64 85 90 3e 4b af d0 3d
       -0.011536202 -0.049295068 0.2822677 0.101896845
0000e0 c6 65 ad 3b f4 ef 16 be 42 32 9e 3d 72 b8 49 3d
       0.0052916734 -0.14739972 0.0772443 0.049248166
0000f0 f5 93 81 be 2e 80 90 3d 36 3c a9 3d 2e 23 9a bc
       -0.25308195 0.07055698 0.082634374 -0.018815603
000100 7f c0 84 3d 61 44 6b 3d 85 6b e5 3d 93 f3 f6 3d
       0.06482028 0.057438258 0.11202148 0.12058177
000110 ad 0a 2f 3e 69 5d 1c 3d 28 15 b5 bc f6 60 5b 3e
       0.17093916 0.03817502 -0.022104815 0.21423706
000120 7d b9 7a bd 6d a0 c3 3d 5c 90 30 3d be 40 0d bd
       -0.06121205 0.09552083 0.04310642 -0.03448557
000130 ab 04 7f bb 43 b5 be 3c c7 bf 12 3e f1 65 d2 3c
       -0.0038912694 0.023279792 0.1433097 0.025683375
000140 09 2b d0 bc 16 69 9c bd 92 6b 6b bd 42 a5 b7 bc
       -0.025411146 -0.07637231 -0.057475634 -0.022417668
000150 43 9e 4c bd b5 b5 31 bc dc c9 8e 3d a9 f1 19 be
       -0.049955618 -0.010846545 0.06972095 -0.15033592
000160 0e 2f a5 bd 5d d5 a4 bc 5f 52 6e bd da 48 15 3d
       -0.080656156 -0.02012127 -0.058184024 0.03644643
000170 f8 22 ce bd 68 1c 24 3e 1e 56 49 be 81 6e 0c bc
       -0.100652635 0.16026461 -0.19661757 -0.008571268
000180 de 6c c4 3d 46 b6 92 bd 44 08 00 3e 8f 40 78 3d
       0.09591077 -0.07163672 0.12503153 0.060608443
000190 46 53 8e 3d 7f 9a 07 bd a2 0c 47 3d 23 47 de 3d
       0.06949477 -0.033106323 0.048596032 0.10853412
0001a0 fa 88 7c 3c 08 f1 5e 3e cb b4 07 3c 76 7c 6c bd
       0.015413517 0.21771634 0.0082828505 -0.057735883
0001b0 87 49 5e 3d 44 b6 0f bd 1b cc 15 3e 9c 56 3c 3d
       0.05426934 -0.03508593 0.14628641 0.045981035
0001c0 8e de cf 3d f8 dc 48 3e 97 31 46 3e 70 09 de bc
       0.10149871 0.19615543 0.19354855 -0.02710411
0001d0 4f 9c d6 3c d5 69 8f bc 9f 22 96 bd 3a 1a ec bb
       0.02619758 -0.01750652 -0.07330822 -0.007205275
0001e0 19 03 a8 bd cc d3 84 3e 30 85 3f be 60 04 c6 bd
       -0.08203716 0.25942838 -0.18703151 -0.09668803
0001f0 0b d7 ea 3d ec f0 cf bd 7e 0b 83 be d9 84 02 3d
       0.114667974 -0.10153374 -0.25594705 0.031864975
000200 cd 83 15 3d 7f 1f a8 bd 2c 00 2f be 0e 58 24 3e
       0.03650265 -0.082091324 -0.1708991 0.16049215
000210 b2 78 8c 3d ab bd 34 be 3f 3e 62 3d 63 b1 3a 3d
       0.06858958 -0.17650478 0.055235144 0.045579325
000220 03 cb e3 bd f1 e9 17 be dc 2d a5 bc 34 6c 93 3d
       -0.11122706 -0.14835335 -0.020163469 0.071983725
000230 18 ce 46 bc 75 af 40 3d 49 03 6d bc 4e 5f 8c bd
       -0.0121340975 0.04704233 -0.014466115 -0.068541154
000240 a5 d5 08 be e9 e9 26 be 72 19 0d be 24 93 7a 3e
       -0.13362749 -0.16300167 -0.13779238 0.24470192
000250 bd 15 d9 bd 73 26 92 bd f1 9e 76 3c a3 60 b7 3d
       -0.105998494 -0.0713624 0.015052543 0.08953979
000260 5a 8c 3d 3d ba f6 90 bc dc 9a d1 bd f1 ae ea bd
       0.046276428 -0.017695773 -0.10234615 -0.11459149
000270 b5 71 66 be dd 59 53 3c 23 27 22 3d d3 a8 f6 bd
       -0.22504313 0.012899843 0.039588105 -0.120439194
000280 fc dd ce bd 7c 51 d9 bd fd 2f 73 3c 3c d2 24 be
       -0.10100934 -0.10611245 0.014842984 -0.16095823
000290 1e d8 4a 3d a1 00 73 bd 76 62 12 3d 3e e9 a0 3d
       0.04952251 -0.05932677 0.03573843 0.078569874
0002a0 b5 5d cd 3d e4 21 21 3e b8 59 ac bd 2a 46 5c 3c
       0.10027639 0.15735584 -0.0841555 0.013444463
0002b0 6d aa 54 3d c8 7b d0 3d 88 b2 1e 3e 25 67 cd 3c
       0.051920343 0.101798594 0.15497792 0.025073597
0002c0 68 c7 3a 3e ae a9 81 bd f9 8f f3 bd 5f 88 65 bd
       0.1824013 -0.06331192 -0.11892695 -0.056038257
0002d0 ce b1 c1 3c c9 e3 3e 3e 92 dc 90 bd 74 61 7a 3e
       0.023644354 0.1864158 -0.070733204 0.24451238
0002e0 37 2f f4 bd 64 99 1d be 1c df 5f bd 1f 02 83 3c
       -0.11923068 -0.15390545 -0.054656133 0.015992222
0002f0 39 4c c9 3d 51 ab 88 3b 9e 17 cb bd 1e 57 b5 bd
       0.098289914 0.004170813 -0.09916614 -0.08854507
000300 a2 a0 5a bd 22 39 f6 bd 05 b0 49 bd 63 9c bb 3c
       -0.053375848 -0.12022616 -0.04924013 0.02290172
000310 c7 ca 78 3c 17 00 98 bc 70 d7 7b 3d 40 66 c6 bc
       0.015185065 -0.01855473 0.061484754 -0.024218678
000320 1e 0f 0f 3d 79 07 c1 3b 36 44 ef 3c c0 05 f9 bb
       0.034926526 0.0058907834 0.02920733 -0.0075995624
000330 a7 b2 13 bd d6 5c 37 3e f0 6b 22 3e a9 93 ab 3d
       -0.036059048 0.17906508 0.15861487 0.08377773
000340 f4 de 8c 3b 43 dc e3 3b 10 c1 e1 3d ee 2c 70 3e
       0.004299039 0.0069537475 0.11023152 0.2345464
000350 ae 7c 8c 3b 05 0a c0 3d 4a a3 7e 3c f3 03 7a 3e
       0.004287324 0.09376911 0.015541861 0.24415569
000360 35 8e ed 3d 36 7e 9e 3b 37 13 10 bd 55 48 11 be
       0.115993895 0.004836823 -0.035174575 -0.14187749
000370 69 62 ce bc ae 48 21 3d 8b 36 05 3e 71 bf 78 bd
       -0.02519341 0.039375953 0.13009088 -0.060729448
000380 0f 08 af bb b0 97 91 bc 0e d6 2f bd d8 11 20 bc
       -0.005341537 -0.017772526 -0.042928748 -0.009769879
000390 6e 47 ba bd e3 e2 37 bd ff 5b 57 bd 65 50 1b bd
       -0.090956554 -0.04489411 -0.05257797 -0.037918467
0003a0 e6 7c 91 bd da 5c 86 3d ee 13 e1 bc ca 95 8e 3d
       -0.071039006 0.06560679 -0.027475324 0.06962164
0003b0 81 dd 5b 3d 0c 82 bc bd 74 bf 22 3c a9 a7 7b 3c
       0.05367804 -0.09204492 0.009933341 0.0153597975
0003c0 04 6d 87 3d 3c 9e ad bd 5d 73 56 bd b9 ca 09 bd
       0.0661259 -0.084774464 -0.052356113 -0.033640597
0003d0 19 37 91 3c 7c c5 72 bc 22 c1 af 3d d2 02 82 3d
       0.017726468 -0.014817592 0.08581759 0.06348194
0003e0 44 9d ba 3c 55 9f d7 3d ea e7 90 3e 25 45 40 3d
       0.022780068 0.10528437 0.28301936 0.04694094
0003f0 d5 6e 94 bd 6e 82 b2 bd c9 98 31 3e 6c 07 d8 3d
       -0.07247702 -0.08716284 0.17343439 0.105482906

classifier.1.bias f4 [10]
000000 52 18 c4 3d 6d b0 e9 bd 5f 4f e5 3e ae df b4 bd
       0.09574951 -0.11410604 0.44787118 -0.08831726
000010 6a e9 c7 be ca 65 4c be a2 9e 45 3e 4d ef 26 3b
       -0.39045268 -0.19960704 0.19298795 0.0025472224
000020 c2 a1 03 3e 36 78 e5 bd
       0.12854674 -0.11204569
